Unidade05/models/model.pth (torch, 15348 bytes, 5 tensors)

weight f4 [64, 13]
000000 94 da bd bd 0d 38 0b be 06 63 cc 3c 25 89 e6 3d
       -0.09270206 -0.135956 0.024949562 0.11256627
000010 03 70 05 3e e5 be 60 be 08 cd 4f 3b 80 c2 9b 3c
       0.1303101 -0.2194782 0.0031707902 0.019013643
000020 07 31 8a be d3 77 82 be 93 59 29 3e 5b 94 11 3e
       -0.2699053 -0.25482044 0.16538076 0.1421675
000030 bc f9 47 3c ff 44 d6 bd 71 38 55 3d 76 e2 3a 3d
       0.012205537 -0.10462379 0.05205578 0.045626126
000040 62 81 16 3e d2 69 0d 3e ed b8 5d be 9f 6f 4a 3e
       0.14697793 0.13809898 -0.21652575 0.19769143
000050 0f 8a ef 3d c1 ca 24 bd 51 ad 2a 3e 5e 60 d3 bd
       0.116962545 -0.040232424 0.16667677 -0.10321115
000060 8a 5f 97 3d 6d 90 3a be 7d 1f b8 bd 23 42 f1 3d
       0.073912695 -0.18219157 -0.08990381 0.11780193
000070 bf 51 5c 3e 0a c4 43 bd 4f 59 e5 3d 94 63 4e bd
       0.21515559 -0.04779438 0.11198675 -0.050387934
000080 a4 be 3b 3e 3c 91 7c 3d f6 38 76 be ed 3a 87 bd
       0.18334442 0.061661944 -0.24045166 -0.06603036
000090 d7 57 41 3e 52 5c 7e 3e c0 db 40 be 0d 9f 53 3e
       0.18881164 0.24839905 -0.18833828 0.20666142
0000a0 ce 52 c1 3d 26 17 52 bc ef db 71 3d 1e 86 29 3e
       0.09439622 -0.012822902 0.059047636 0.16555068
0000b0 ca d1 e0 bd fc 2f 13 3c 5b b4 84 3c 00 1d 5a be
       -0.10977514 0.008983608 0.016199281 -0.21300125
0000c0 64 3b 8c 3e 2e 71 57 3d d3 24 5b 3e 10 f2 16 be
       0.2738906 0.05259817 0.21400766 -0.14740777
0000d0 9f b8 50 be c5 e2 5e 3e ce 34 26 3d 25 ac 0d 3e
       -0.20382927 0.21766193 0.040577702 0.13835199
0000e0 4f d2 80 be 1e 90 93 bc 7b 9f c0 bd ef b6 7a 3e
       -0.25160453 -0.018013056 -0.094054185 0.24483846
0000f0 2d 99 35 be 4d c0 1e 3c 24 7b 49 bd 29 8b 0f 3e
       -0.17734213 0.009689403 -0.0491897 0.14017929
000100 fe da 15 3e b8 2f 8a 3e 18 f0 5e 3e a3 79 11 be
       0.1463432 0.26989532 0.21771276 -0.14206557
000110 8c 91 6c 3e 54 60 66 be ef 88 72 bd 3a 47 b2 3d
       0.23102397 -0.22497684 -0.05921262 0.08704992
000120 8d 2e c2 bd e6 ff 82 3e 43 7e c0 bd be f3 3c be
       -0.09481535 0.2558586 -0.093990825 -0.18452355
000130 24 3f 1a 3e b8 4c a9 3d d3 ab 81 be b2 35 d4 3d
       0.15063149 0.08266586 -0.25326404 0.10361804
000140 a6 c8 e8 3d 43 76 9e be 2d 53 33 3e 3e e3 f6 3d
       0.11366396 -0.30949602 0.17512198 0.12055062
000150 71 a2 d4 3c 8e 0d 23 be 3f 3e 1b be 4d be f3 3d
       0.025956364 -0.1592314 -0.15160464 0.11901531
000160 0e e4 df 3c 91 5f 5f be 35 3d 21 3c 19 2f c8 bc
       0.027330425 -0.218138 0.009841253 -0.02443652
000170 f5 ce 26 be fc 90 73 be 2c 6f 9e 3a f2 49 84 3e
       -0.16289885 -0.23785776 0.0012087575 0.25837666
000180 13 84 70 3e f9 d5 cf 3c 0b dc 9e bc ee 93 13 bd
       0.23487882 0.025370585 -0.019392034 -0.03602975
000190 a2 94 f8 bd 06 77 a5 be b9 e2 6c be bd 15 34 3e
       -0.121377245 -0.3231737 -0.23133363 0.17586417
0001a0 3b 86 8d 3d 16 3b 4e 3e f7 c8 93 be 7e 2b b5 3c
       0.06910368 0.20139727 -0.28864262 0.022115465
0001b0 57 99 5c 3d 82 32 4d bd 8c 49 64 3e 77 da 9c 3e
       0.053857174 -0.050096996 0.22293681 0.30635425
0001c0 03 a8 c5 bd c0 d2 59 be 1d 76 54 be c1 6f 9a bd
       -0.09651186 -0.21271801 -0.20748182 -0.075408466
0001d0 f1 9b 04 bc 9f 00 15 be c4 3b 92 3e ca 5e 46 3e
       -0.00809382 -0.14551018 0.28561223 0.19372097
0001e0 0a b8 ef 3d b8 d3 d5 bd f5 2b 9f 3e ba 27 59 be
       0.117050245 -0.10440773 0.31088224 -0.2120656
0001f0 5f 3b 08 bd db 17 38 3e bc 73 e1 3d 20 f3 67 be
       -0.033259746 0.1797785 0.11008403 -0.22651339
000200 af c9 00 be c2 3f 14 bf 52 ed 8a be 74 c6 fa 3d
       -0.12576936 -0.57909787 -0.27134186 0.12244883
000210 cd 89 f5 bc c8 08 62 3e a4 2a 99 3d 8b 03 a1 bd
       -0.029972935 0.22073662 0.07478836 -0.07862004
000220 90 c0 1d 3d cf c0 11 be b8 55 14 3e f6 69 64 3d
       0.03851372 -0.14233707 0.14485824 0.055765115
000230 81 2d b2 bd d2 32 68 3e cf 8e b8 3d 86 85 85 3e
       -0.087000854 0.22675636 0.090116136 0.26078433
000240 08 aa 78 be 12 59 0f be fa a8 ef bd 63 82 8d be
       -0.24283612 -0.13998821 -0.117021516 -0.2763854
000250 5f b6 2a 3e 8d d1 c8 bd 3c d0 8c 3d 21 67 25 3d
       0.16671132 -0.09805594 0.06875655 0.040381555
000260 32 e7 1f 3e e4 f7 b2 3d 89 01 57 be bf ba 2e be
       0.15615538 0.08738688 -0.2099668 -0.17063425
000270 50 97 80 3e da c5 bf bc a8 94 30 3e 99 63 97 3d
       0.25115442 -0.023409773 0.17244208 0.073920436
000280 b7 4f 25 3e 7a dc 01 3e 53 75 18 3e c8 9b 7d 3d
       0.1614369 0.12681761 0.14888506 0.061916143
000290 e8 5d 22 3d 3d 69 33 3e ca 46 62 3d a2 42 e0 bd
       0.039640337 0.17520614 0.05524329 -0.10950209
0002a0 58 8a 45 be bd 53 ed 3d ac c8 57 be c0 82 14 be
       -0.19291055 0.115882374 -0.21072644 -0.14503002
0002b0 9c 8c 8e be 60 7d 75 be 8c 8d 10 3e 0e ea d1 3c
       -0.2784165 -0.23973608 0.14116496 0.025624301
0002c0 d9 9a 74 3e aa c9 71 be a3 a9 6c 3e f3 1d ff 3d
       0.23887195 -0.23612085 0.23111586 0.12456884
0002d0 b2 13 25 3e fd bb 2d 3e a3 c3 22 3e d9 96 49 3e
       0.16120794 0.16966243 0.15894942 0.1968645
0002e0 7a 23 dd 3d 00 f5 b5 3d cb 22 1d 3e 8e c4 e1 3d
       0.10797782 0.08884621 0.15345304 0.11023818
0002f0 9e 4a 86 3e 0d 68 83 bd f7 ce b8 bd 22 3e 03 be
       0.26228803 -0.064163305 -0.090238504 -0.1281667
000300 78 22 0f 3e 5d af 86 bd 3d 15 fd bd ed 39 eb bd
       0.13977993 -0.06576417 -0.123575665 -0.11485658
000310 e3 a4 7e 3e fc 21 c1 bd db 3b e6 bd a0 08 7e bc
       0.24867587 -0.0943031 -0.11241885 -0.015504986
000320 7e 80 a1 bc 7b 06 13 bd 92 45 27 3e 31 50 d7 3c
       -0.01971459 -0.035894852 0.16335133 0.026283355
000330 a5 51 d2 3d 13 c4 30 be e1 5b 21 3e 6d e7 21 3e
       0.10269479 -0.17262296 0.15757705 0.15810938
000340 bc 17 82 bd 40 5f 21 bc f4 b1 2b bd 5b 20 7e be
       -0.06352183 -0.0098493695 -0.041917756 -0.2481703
000350 60 c3 62 3c 47 1a 80 3e e6 96 6f be 12 54 51 be
       0.013840526 0.25020048 -0.23397407 -0.20442227
000360 80 5f 50 3c ee a1 20 be 00 f5 76 bc ec 55 13 be
       0.0127180815 -0.15686771 -0.015073061 -0.14388245
000370 22 3b da bd eb 1c 83 3e 69 9d 0a bd b9 46 96 bc
       -0.1065581 0.25608 -0.033841524 -0.01834427
000380 d4 0c 91 3e 45 1c 3c be 23 d9 84 3e 4a bd a8 3d
       0.283301 -0.18370159 0.25946912 0.08239229
000390 75 86 d3 bd f9 b2 c7 bd ce ae 82 3e af 95 58 3e
       -0.1032838 -0.09750933 0.2552399 0.2115085
0003a0 09 9b 0a be a1 c8 9a bc 0e a0 19 bc 25 8c 5d bd
       -0.13535704 -0.018894495 -0.009376539 -0.05408873
0003b0 37 c9 5d 3e a7 ac b2 3d d2 a0 a7 bd f5 37 98 3e
       0.21658789 0.08724337 -0.08184971 0.29730192
0003c0 e1 01 e8 bd f9 0a 26 3e 51 47 b3 bc 21 04 8b ba
       -0.113284834 0.16215123 -0.021884592 -0.0010606089
0003d0 83 b7 71 be 15 d7 f2 3d b9 97 84 3e 86 fb 80 3e
       -0.2360516 0.1185743 0.25897005 0.25191897
0003e0 b8 f7 7a be ff 46 10 3e 6e 58 fc 3d c2 46 f0 bd
       -0.2450856 0.14089583 0.12321554 -0.11732246
0003f0 3a 3c ce bc cc 9f f1 bc d2 c7 8f be 7e 08 b8 bc
       -0.025175203 -0.029495142 -0.28082138 -0.022464987

bias f4 [64]
000000 b1 44 77 3e 6e f3 3c 3d ca 8a 9c bd 77 e5 f4 bd
       0.24147297 0.04613059 -0.076436594 -0.119578294
000010 ea 96 95 3d 52 32 d5 3c 56 d6 0d 3e 6c ac 3a be
       0.07304175 0.026024971 0.13851294 -0.18229836
000020 f7 e7 30 be 6a 12 16 be 45 35 47 3e 83 af ed 3d
       -0.17275988 -0.14655462 0.19453914 0.11605742
000030 d6 25 85 3e f5 08 40 3e 54 4f 42 3e 9c 18 1d be
       0.2600543 0.18753417 0.18975574 -0.15341419
000040 c0 da 08 be 1d 66 2e be 00 25 7c 3e 97 6c 55 3e
       -0.13364697 -0.1703114 0.2462349 0.20842205
000050 86 6e 05 3d 3d 5f 2e 3e 5b 63 74 3e 58 f3 8b 3d
       0.032576106 0.17028518 0.23866026 0.068335235
000060 ac d1 e5 3d 5a 05 1e be 25 9c 08 be c8 c3 d6 3c
       0.11221632 -0.15431729 -0.13340814 0.026216403
000070 ca af 2c be 22 03 37 be bf 26 42 3c 97 35 20 be
       -0.16863933 -0.17872289 0.011850058 -0.15645443
000080 b7 5c 88 3d df b4 39 3d 8d 5b ca bd 9a 84 d1 3d
       0.06658309 0.045338508 -0.09880743 0.1023037
000090 28 39 8d 3e 6a 77 88 3b fa 4b b1 bd bb f3 4d be
       0.2758267 0.004164626 -0.086570695 -0.20112507
0000a0 56 d9 26 be 21 9c 10 be 79 59 84 be 1a 37 4d 3e
       -0.16293845 -0.14122058 -0.25849512 0.20040551
0000b0 47 ec 75 3e 73 d9 2f 3e 91 16 83 3e 1b 79 ed ba
       0.24015914 0.17172794 0.25603154 -0.0018117757
0000c0 2c ee 12 3e 48 de 83 bd 60 f3 53 be 06 da 2d be
       0.14348668 -0.06438881 -0.20698309 -0.169777
0000d0 2c 9e f0 3c 3c ee e3 3d a3 99 f8 bc 04 e8 93 bd
       0.029372297 0.11129424 -0.030346697 -0.07221988
0000e0 b8 46 2d be a4 02 57 3e 6d 20 0d 3e bd d4 8d 3e
       -0.16921508 0.20997101 0.137819 0.2770137
0000f0 3b 6a 8e bd 10 02 7a bd 11 8e 0a 3e 9e 78 d3 3d
       -0.069538556 -0.061037123 0.13530757 0.1032574

weight f4 [32, 64]
000000 f9 87 bf 3e ae 3e 89 3d 06 ee e3 bd c5 de 24 bc
       0.37408426 0.06701408 -0.11129384 -0.010062878
000010 28 6c 0b be 64 6c b6 3d ef 38 a5 bd f9 9a 9e be
       -0.13615477 0.089073926 -0.080675 -0.3097761
000020 58 d0 16 bf 82 f8 ad 3e 7f 92 7b 3d b8 09 cc be
       -0.5891166 0.3397866 0.061419006 -0.39851165
000030 bd 1a ae bd a9 36 99 3e 47 06 b4 bd df 9b c1 be
       -0.08501194 0.29924515 -0.0879026 -0.37814233
000040 08 2c 5b bd af 7f b8 3d ac 8e 7a 3d 6d b4 b3 3c
       -0.05350879 0.09008729 0.06117122 0.02193662
000050 33 6d 23 bd d0 1c 65 be e2 03 05 3e 80 cc 8f 3d
       -0.039899062 -0.22374272 0.12989762 0.07021427
000060 56 2b fa be e6 d5 53 be be 07 b2 3c fc f5 07 3d
       -0.48861188 -0.20687065 0.021732207 0.033193573
000070 b0 82 e4 3e 00 14 02 3a 59 73 04 be 23 99 d6 3d
       0.44630957 0.00049620867 -0.12934627 0.10478427
000080 70 04 d7 bd 82 b8 31 be 89 42 45 be 0d e4 2f 3d
       -0.10498893 -0.1735554 -0.19263662 0.042942096
000090 92 90 1a bd b0 45 cb be 69 65 0b 3e d2 a3 3f 3d
       -0.03773553 -0.39701605 0.13612904 0.04678709
0000a0 19 4f 70 be de de 51 3b dc 08 15 3d b8 68 bf 3d
       -0.23467673 0.0032023708 0.036385402 0.093461454
0000b0 5e 36 a5 3e 40 e9 ae 3e af 08 1a bb 5d c4 ab be
       0.3226804 0.3416233 -0.002350371 -0.3354825
0000c0 a7 ef d0 bd 25 26 97 3d c5 9e e4 3e 7b 29 37 3e
       -0.1020196 0.07380322 0.44652382 0.17886917
0000d0 88 bc 17 3d 70 1f a2 3c e8 91 1d 3d 05 a8 8e bd
       0.03704503 0.019790381 0.038469225 -0.06965641
0000e0 e1 df e0 3c 86 cd 1c 3e 1f cb 15 be ea c8 98 bd
       0.027450504 0.15312776 -0.14628266 -0.07460196
0000f0 ad 28 8c bc be bc 3b 3e b6 26 24 be 24 b3 a1 3d
       -0.01710924 0.18333718 -0.16030392 0.078954965
000100 64 1e 1e bc dd 27 9c bd ee f2 d6 bd 0f 07 bd bd
       -0.0096508 -0.07624791 -0.10495554 -0.09229862
000110 73 ba bd 3c ff 8a 05 3c 78 02 d1 3d 78 d3 8e bd
       0.023160195 0.008150815 0.10205549 -0.06973928
000120 55 fb 86 bb 06 02 41 3c a3 8e 91 3c 6e 0e d4 bd
       -0.0041193166 0.011780268 0.01776821 -0.10354315
000130 39 e2 3e ba 22 6d ee bc 0e 08 15 bc 30 37 4e bd
       -0.00072816346 -0.029104773 -0.009096159 -0.0503456
000140 1c dd 88 bd fe 85 e3 bc 1f 1c 08 be 10 af 9c 3d
       -0.06682798 -0.027773853 -0.13291977 0.07650578
000150 9f d7 d1 3d 8c 55 d0 3d 24 ac 07 3d b1 bd fa bd
       0.102462046 0.10172567 0.03312315 -0.12243212
000160 c2 97 73 3d 70 a6 01 be f9 5d 96 bc 57 39 a6 bd
       0.0594709 -0.12661147 -0.018355357 -0.081164055
000170 f0 bb 59 bc c8 ca b8 3c 9d dc e8 3b 9e 82 c7 bd
       -0.013289437 0.022557631 0.0071063773 -0.0974171
000180 da 5e 80 bd dc 25 81 3d ab 72 76 3c ef 9d 60 bc
       -0.062680915 0.06306049 0.015041987 -0.013709529
000190 78 2e 23 3d 67 02 84 3c 9c 15 6b bd 79 7d 0b bd
       0.039839238 0.016114427 -0.057393655 -0.034055207
0001a0 a3 89 e9 bd ab 86 ad 3c 9a 83 a6 bd ef 83 f8 bc
       -0.11403205 0.021182379 -0.0813057 -0.030336348
0001b0 e5 37 b8 3d 26 5b 58 bc 15 37 84 bd d7 51 bf bd
       0.08995036 -0.013205325 -0.064558186 -0.093417816
0001c0 8f 7f 88 bd ca 23 34 bd b3 d9 07 be 20 3f af bd
       -0.06664955 -0.043979444 -0.1326664 -0.08556962
0001d0 8d 18 e2 bd 41 a4 92 3c 34 8c df 3d ff c8 97 bd
       -0.11039839 0.017900588 0.109154135 -0.07411384
0001e0 8e 63 a3 3d 2c 22 11 be 9a fd b8 bc c1 2b 3b 3d
       0.07977973 -0.14173192 -0.022581864 0.045696024
0001f0 f3 49 4a 3c 0d d9 a2 bd 42 95 c6 bd 11 24 a5 bd
       0.012346732 -0.079515554 -0.096964374 -0.0806352
000200 e2 f5 22 3c 75 34 d0 3d 7b a2 b2 bd 64 9c 22 3d
       0.009946318 0.101662554 -0.08722397 0.039699927
000210 93 a1 30 3d b2 ff 2e 3d 5d 6c 9e bd 8c 39 76 3d
       0.04312284 0.04272432 -0.077355124 0.060113475
000220 55 04 92 3d 6c 8a 31 3e 74 10 0d 3b ec f1 b4 bd
       0.071297325 0.1733796 0.00215247 -0.088352054
000230 dd d7 f6 3d c2 80 04 3c b5 78 96 bd c1 34 d9 bc
       0.120528914 0.008087339 -0.07347242 -0.026514413
000240 58 f2 93 3d 99 4f 33 bd 09 a0 7e 3d dc 3a 03 3d
       0.07223958 -0.043777082 0.06216434 0.032038555
000250 2d 92 9e bb db 59 8c 3e d2 50 12 bd eb fd 1a 3e
       -0.004839203 0.27412304 -0.035721608 0.15135925
000260 66 1f fb 3d 9c 5d 47 3d 8b e7 d2 3d 92 0c f2 3d
       0.12261848 0.048673257 0.102980696 0.11818804
000270 ee 12 42 3d 20 c4 41 bd 71 2f 88 bd 25 b5 45 be
       0.047381334 -0.04730618 -0.06649674 -0.19307382
000280 77 36 77 3d 60 7f 3b bd a8 e7 3c bd f1 cb ed bd
       0.060354676 -0.04577577 -0.046119362 -0.11611164
000290 51 77 1a 3d 3f 7f cc 3d 21 88 67 be 09 9f 41 3e
       0.037711445 0.09985208 -0.22610523 0.18908323
0002a0 62 df 0b 3e d1 e3 da 3b 80 c6 97 ba e9 f3 12 3e
       0.13659433 0.00667999 -0.0011579543 0.14350857
0002b0 74 dc 40 3d 24 6c 5f 3d cb c9 de bc 2b a5 e3 3c
       0.04708524 0.05454649 -0.027195832 0.02778872
0002c0 ea 57 70 3e 8c 75 51 be 72 ae 94 3b 74 69 01 3d
       0.23471037 -0.20454997 0.004537397 0.03159471
0002d0 9e 82 fd 3d 80 2f c1 3c 34 3d c2 3d b5 f8 53 bd
       0.12378429 0.02358222 0.0948433 -0.051750857
0002e0 b1 f1 a7 3b 09 e7 84 bd 05 7a c7 bd d7 ea 00 be
       0.0051252474 -0.06489379 -0.0974007 -0.12589584
0002f0 d6 67 e5 3d 80 1f 52 3d 82 20 f2 3c ff 58 8f 3a
       0.11201446 0.051299572 0.029556517 0.0010936557
000300 a9 41 08 bd bb ac f1 bc 06 28 96 3d d0 26 a1 3d
       -0.033265743 -0.02950131 0.073318526 0.07868731
000310 ac 8a e7 bd 3c 40 a7 bd 7d 67 03 bb a3 33 f1 bd
       -0.113057464 -0.081665486 -0.0020050697 -0.11777427
000320 1d c0 96 bb 47 12 d2 bd 11 08 a3 3d 83 11 84 bd
       -0.0046005384 -0.102573924 0.07960523 -0.064486526
000330 8a 84 b3 3d 46 d2 b6 bd db 2f 07 be e6 6d 83 bd
       0.08765514 -0.08926825 -0.13201849 -0.06417446
000340 10 5a 83 3d 85 e3 82 bb 23 d7 9f 3d a9 53 b6 bd
       0.064136624 -0.0039944076 0.07804706 -0.08902676
000350 86 a3 1c 3c 92 5e 95 bd ab 06 95 bd 83 cf c6 3d
       0.009560471 -0.072934285 -0.072766624 0.097075485
000360 cc c5 f3 bd 5b d6 41 3d 90 3d 97 3d 59 ed 73 3d
       -0.11902961 0.047323566 0.07384789 0.059552524
000370 ce f4 00 be 70 a4 d9 bc 00 a8 2d bc 3d 3a 7c 3d
       -0.12593386 -0.026567668 -0.010599136 0.061578978
000380 6d a6 b9 bd 5c 73 e2 3d 49 55 96 bd b4 cd 8e bd
       -0.09064946 0.11057159 -0.073404856 -0.069728285
000390 09 a3 0c 3c cf ca 04 bc c4 a7 d1 bd 16 79 88 bc
       0.0085837925 -0.008104994 -0.10237077 -0.0166593
0003a0 0b 3f cd 3d 4d c2 88 bd e4 2b b0 3d 61 24 d1 3d
       0.1002179 -0.06677685 0.086021215 0.10212017
0003b0 4f 54 30 3d 96 2a 88 3d b9 bb ce 3d fd 17 d6 3c
       0.043049153 0.066487476 0.10094399 0.026134485
0003c0 ff 1d 1e 3d b3 e5 dd 3d 4b 43 41 3c 7b b0 8d 3c
       0.038602825 0.10834827 0.011795829 0.017296067
0003d0 95 63 34 bd c6 1f e5 bd 36 ec 00 be 9f 86 8b 3d
       -0.04404028 -0.11187701 -0.12590107 0.06812786
0003e0 ca 53 ea bc fd c2 cb bd b9 95 76 3c 4d f2 b0 bd
       -0.028604407 -0.099493004 0.015050345 -0.08639965
0003f0 ed e3 0c be 05 ac d9 bd 8d 4a c5 3d 90 ac a3 bd
       -0.13758822 -0.10628513 0.0963336 -0.07991898

bias f4 [32]
000000 25 74 09 bd ec 45 d9 3d e7 f2 d3 3c 39 81 0b be
       -0.03355803 0.1060904 0.02587266 -0.13623513
000010 26 22 af 3d 65 6d 63 3d fa d9 04 be 55 d0 da 3d
       0.08551435 0.05552425 -0.12973776 0.106842674
000020 06 7c c6 bb 4f 91 0d bd bb 81 28 bd b8 51 3f 3c
       -0.006057265 -0.034562405 -0.041139346 0.011677198
000030 b8 df 05 be 49 38 00 3e 05 b5 65 bd 42 25 be bc
       -0.13073623 0.12521471 -0.056080837 -0.023211125
000040 cd 7e 78 3c 86 2c c4 3d 0a 1a a2 3d 2a 74 85 3c
       0.01516695 0.09578805 0.07915123 0.016290743
000050 b5 6c b6 3d 60 08 96 bd c2 7f d8 3b 77 72 6e bd
       0.08907453 -0.07325816 0.006607027 -0.05821463
000060 30 1d ab 3c ed 0e 51 bd 94 c8 28 3d 7d f3 96 bd
       0.020887941 -0.051039625 0.04120691 -0.073706605
000070 b5 d3 57 bb 0e 32 f5 bc e7 de 28 3e 35 f1 c3 3d
       -0.0032932584 -0.029931094 0.1649128 0.09567491

weight f4 [1, 32]
000000 02 94 2c bf 3e c7 d7 bd 33 ca 00 3e 88 b9 25 be
       -0.6741334 -0.10536049 0.12577133 -0.16184056
000010 b2 46 ae bc 36 81 c8 bd 92 3d 92 bc 86 38 28 3e
       -0.021273945 -0.0979027 -0.017851625 0.16427812
000020 47 58 0f 3d db 7b 23 be a5 a3 cb 3d e5 ac 26 bc
       0.034996297 -0.15965216 0.09943322 -0.010173057
000030 6b e4 25 be 6a ac c1 3d 31 b5 06 3e 5d d3 85 3d
       -0.16200416 0.094567135 0.13155057 0.06534455
000040 f4 7c 51 bd 11 31 e6 bd fe 5d 80 bd e7 dd fd 3a
       -0.051144555 -0.112398274 -0.062679276 0.00193685
000050 28 57 d3 3d cd 4f 79 bd 6a 60 0c bd ac b4 1d 3e
       0.10319358 -0.06086712 -0.034271635 0.15400952
000060 41 0a 9c bd 34 8c 57 3e 83 56 99 bd 01 9a 24 3e
       -0.07619143 0.21049577 -0.07487204 0.16074373
000070 0e 4b b5 3b 12 b2 ae 3d 1f f3 ad 3e aa d4 39 be
       0.005532629 0.08530058 0.3397455 -0.18147531
